model_api/models/RNN_Fraud.pt (torch, 31900 bytes, 5 tensors)

rnn.weight_ih_l0 f4 [32, 194]
0.1192819 0.3269815 -0.2585651 2.7552652 0.052306235 0.081207134 -0.19847864 -0.16265185
0.1362873 0.06903004 0.41475475 -0.27204734 -1.7675614 0.19154634 -0.22871725 -0.054026645
-0.46368375 -0.9154724 -0.749583 -0.7978371 -0.15628806 -0.05515896 -0.8042881 -0.7574768
-0.716257 0.044985183 -0.5456553 -0.8242562 -0.017405057 -0.5968757 -0.57302064 -0.9207979
-0.58738416 -0.08387902 -0.6853313 0.02561242 -0.6598841 -0.15826513 -0.6115176 -0.67193514
-0.84464204 -0.5899938 -0.79475576 0.023479577 -0.5390075 0.036517464 0.035504818 -0.6972785
0.009914603 -0.38154334 -0.8979888 -0.83799195 -0.6620312 -0.019752843 -0.50954765 -0.5069798
-0.2810003 -0.58249825 0.0368022 -0.07009522 -0.17362745 -0.7787183 -0.62648803 -0.8648487
-0.8969251 -0.021082914 -0.74870217 0.03731076 -0.8918908 -0.13231798 -0.90922034 -0.80770785
-0.24883355 -0.15591513 0.020915302 -0.15273577 0.01950323 -0.22886086 -0.8446433 -0.63216263
-0.05473706 -0.89076203 -0.61803883 -0.41921356 -0.62321055 -0.90613484 -0.041151945 -0.023663549
-0.7645547 -0.34231704 -0.06897838 0.18231624 -0.63570404 -0.024108639 0.0785246 -0.073300496
-0.7108123 -0.17682451 -0.8226965 -0.19275004 -0.90261847 -0.37928498 -0.89246553 -0.18595754
-0.6143004 -0.16149557 0.047257878 -0.8717163 -0.07614984 -0.6509567 -0.1804114 -0.7457259
-0.25962448 -0.8302151 -0.88633364 -0.87992173 0.09110077 -0.89777654 -0.25370255 -0.020887826
-0.20833735 -0.022718057 -0.65963465 -0.83358103 -0.41193855 0.1314456 -0.36312205 -0.052386828
-0.92610115 -0.57748026 -0.18749037 -0.21194823 -0.6153121 -0.21071261 -0.90250367 -0.79315895
0.040310707 -0.13953201 -0.79396176 -0.036208637 -0.7513623 -0.71665907 -0.5903359 -0.4813827
-0.907062 0.05702287 0.35169998 0.11096633 -0.8629844 -0.53448075 -0.6741154 0.07563198
-0.09930522 0.017167516 -0.88476926 -0.07358178 -0.91136974 -0.15417995 -0.37251046 -0.87088567
-0.037696064 -0.007542003 -0.020015724 0.07078161 -0.26068088 0.0249753 -0.56774026 -0.13785046
-0.031158796 -0.11955285 -0.0012431367 -0.30947116 -0.05289882 -0.6122045 -0.5297075 -0.6587982
-0.9019335 0.12924846 0.13000716 -0.82005656 -0.769655 -0.23388617 -0.044795748 -0.3425603
-0.35946304 0.077729195 -0.35895172 -0.7297618 -0.35913545 -0.035691734 -0.8767909 -0.86318845
0.054169666 -0.1841816 -0.42105854 -0.13120604 0.027066613 0.24789481 0.12935893 -0.0002469187
-0.036167067 0.36088827 1.749628 -1.8295214 0.32809678 0.27246213 0.15704705 0.39992046
-0.40060484 0.038094077 0.06770978 -0.5758683 -0.14798535 -0.040950727 0.13457952 0.089990415
-0.05968376 -0.48529905 -0.3100462 -0.6618761 -0.52716565 -0.6450341 -0.051478513 -0.43414193
-0.6516535 -0.4113003 -0.39628297 -0.10533911 -0.41267768 -0.30877075 -0.36773333 0.29350537
-0.4760994 -0.5808207 -0.17438185 -0.6158179 -0.48198444 -0.56602865 -0.6543304 0.052701402
0.11015691 -0.36099944 0.07185378 0.45011285 0.14308095 -0.5758286 -0.37418315 0.07246261
-0.6717887 0.07975581 -0.52288425 -0.40037024 -0.12131363 0.06814477 0.01685511 -0.66882694
00000000: 124a f43d 1f6a a73e a562 84be 4456 3040
00000010: 103f 563d ed4f a63d fc3d 4bbe 358e 26be
00000020: e68e 0b3e 9f5f 8d3d bc5a d43e ca49 8bbe
00000030: 743f e2bf b924 443e db34 6abe 0b4b 5dbd
00000040: f567 edbe 665c 6abf ace4 3fbf 0d3f 4cbf
00000050: fa09 20be 5dee 61bd d3e5 4dbf 00ea 41bf
00000060: 9e5c 37bf 6242 383d 11b0 0bbf 7402 53bf
00000070: 0d95 8ebc d9cc 18bf 7bb1 12bf 69b9 6bbf
00000080: cf5e 16bf c3c8 abbd df71 2fbf 23d1 d13c
00000090: 2aee 28bf 4110 22be 6b8c 1cbf f103 2cbf
000000a0: 763a 58bf d509 17bf 1d75 4bbf 3e58 c03c
000000b0: 65fc 09bf 5693 153d 806d 113d d880 32bf
000000c0: dc70 223c a659 c3be 98e2 65bf a486 56bf
000000d0: e07a 29bf b7d0 a1bc b771 02bf 6ec9 01bf
000000e0: 45df 8fbe 9b1e 15bf e7bd 163d 158e 8fbd
000000f0: 65cb 31be 155a 47bf 8561 20bf b966 5dbf
00000100: e29c 65bf 13b6 acbc f2aa 3fbf 2bd3 183d
00000110: f552 64bf 5d7e 07be aac2 68bf f1c5 4ebf
00000120: 39ce 7ebe 37a8 1fbe 9156 ab3c c466 1cbe
00000130: 3dc5 9f3c 805a 6abe 8b3a 58bf 69d5 21bf
00000140: f833 60bd fb08 64bf cb37 1ebf 29a3 d6be
00000150: ba8a 1fbf 74f8 67bf f18e 28bd 0fda c1bc
00000160: dbb9 43bf 2e44 afbe 8944 8dbd 1cb1 3a3e
00000170: 80bd 22bf 7b7f c5bc 81d1 a03d 921e 96bd
00000180: cbf7 35bf 7c11 35be 3d9c 52bf 4460 45be
00000190: 0112 67bf a431 c2be 9f78 64bf a76b 3ebe
000001a0: ca42 1dbf 185f 25be 7a91 413d cd28 5fbf
000001b0: 73f4 9bbd 19a5 26bf c4bd 38be e5e7 3ebf
000001c0: 80ed 84be fa88 54bf c3e6 62bf 8d42 61bf
000001d0: 0a93 ba3d afd4 65bf 4de5 81be f21c abbc
000001e0: 6356 55be 381b babc d1dd 28bf 9165 55bf
000001f0: 9ce9 d2be ad99 063e 22eb b9be 9293 56bd
00000200: f714 6dbf bfd5 13bf 7afd 3fbe f508 59be
00000210: 1885 1dbf 0cc5 57be 7b0a 67bf 770c 4bbf
00000220: d71c 253d 7be1 0ebe 1441 4bbf 824f 14bd
00000230: 4859 40bf f876 37bf 4120 17bf cb77 f6be
00000240: 3735 68bf d090 693d 0512 b43e 5142 e33d
00000250: 8cec 5cbf bbd3 08bf d492 2cbf f1e4 9a3d
00000260: 8960 cbbd e4a2 8c3c 3d80 62bf 0bb2 96bd
00000270: 874f 69bf 59e1 1dbe b1b9 bebe 5df2 5ebf
00000280: 3067 1abd e822 f7bb 04f8 a3bc f3f5 903d
00000290: f777 85be 0099 cc3c 6d57 11bf ac28 0dbe
000002a0: bb40 ffbc 20d8 f4bd bff0 a2ba 0173 9ebe
000002b0: 6fac 58bd 6fb9 1cbf e99a 07bf 00a7 28bf
000002c0: 1de5 66bf b559 043e 9920 053e 3aef 51bf
000002d0: 1c08 45bf db7f 6fbe bf7b 37bd 1064 afbe
000002e0: 8a0b b8be 7c30 9f3d 85c8 b7be abd1 3abf
000002f0: 9ae0 b7be 7f31 12bd 5e75 60bf ebf9 5cbf
00000300: 03e1 5d3d 1a9a 3cbe fc94 d7be e05a 06be
00000310: cdba dd3c 23d8 7d3e ab76 043e de74 81b9
00000320: eb23 14bd 59c6 b83e cff3 df3f c22d eabf
00000330: 4dfc a73e 2880 8b3e f1d0 203e 60c2 cc3e
00000340: 141c cdbe 8908 1c3d 6dab 8a3d 1b6c 13bf
00000350: 7989 17be f3bb 27bd 37cf 093e e54c b83d
00000360: f576 74bd 1e79 f8be 60be 9ebe b670 29bf
00000370: 54f4 06bf f420 25bf 22db 52bd da47 debe
00000380: c4d2 26bf f495 d2be 9ae5 cabe 08bc d7bd
00000390: 7d4a d3be 3317 9ebe 8b47 bcbe 5646 963e
000003a0: 4dc3 f3be aab0 14bf 2891 32be 3ea6 1dbf
000003b0: aac6 f6be 41e7 10bf 3282 27bf 6ddd 573d
000003c0: f299 e13d ebd4 b8be 1328 933d 3175 e63e
000003d0: d083 123e 8169 13bf ef94 bfbe 4767 943d
000003e0: 58fa 2bbf 0457 a33d bedb 05bf 54fd ccbe
000003f0: 4873 f8bd 7c8f 8b3d ba13 8a3c 3e38 2bbf

rnn.weight_hh_l0 f4 [32, 32]
0.15314557 -0.12369482 -0.03352113 -0.17644924 0.07746683 0.003650695 -0.11124262 -0.02858074
-0.009635374 0.14575563 0.06697221 0.119337454 0.008782849 -0.16457327 0.118453726 0.058818877
0.012193695 -0.16299817 0.12208037 -0.10767588 -0.030280843 -0.15786861 -0.049228713 -0.11358845
0.09038843 0.04459533 0.08843477 -0.15043953 -0.029266521 0.0809585 -0.029022783 -0.019641742
-0.110323146 -0.0041778088 -0.1639971 -0.075601816 -0.0048421323 -0.10529833 -0.017496318 0.09814988
-0.10410541 0.03843987 0.14686741 -0.05383849 2.0593405e-05 0.16187741 -0.0253696 0.0705301
0.13275258 -0.08799676 0.08482461 -0.0943835 0.012908593 -0.052931212 0.027739793 0.1529169
0.08464266 -0.13928162 0.17230286 -0.08631272 -0.07510823 0.1723261 0.15902774 0.16774823
0.093995824 -0.093316026 0.17515512 0.00902231 0.10476746 -0.16045073 -0.053288177 -0.012471691
0.08406584 -0.17294472 -0.030409053 -0.1511294 0.109001055 -0.10803226 -0.14495772 0.12530424
-0.15164724 0.14151402 -0.06218698 -0.020067424 -0.027058572 -0.16521859 -0.07034244 0.16256823
-0.15403141 0.14845546 0.13609333 -0.013894722 -0.015671223 0.026884764 -0.03430952 -0.1339035
0.122560754 0.1624719 0.024453849 0.13674216 0.15929554 -0.032302707 -0.10975642 -0.15720774
0.100948855 -0.010408014 0.074666396 0.0052755624 -0.17144649 0.09447135 0.07781573 -0.041992113
0.07316366 0.00068058074 -0.11045323 0.087182984 -0.05873102 0.035015747 -0.09666944 0.08220227
-0.023528203 -0.16751595 -0.05680006 -0.025013536 0.007444173 -0.104277015 -0.052680522 -0.1622771
-0.12601344 -0.14106521 -0.15073773 -0.06923543 0.06540428 0.12602092 0.12556465 0.036465406
0.16767557 -0.08695177 0.05825661 0.05090037 0.053393632 -0.073219694 0.002090335 0.13088338
-0.04880987 0.014984146 0.046346083 0.14732982 -0.08186701 0.14884795 -0.052190065 0.07948001
-0.057155885 0.053121597 -0.13854404 -0.16678685 0.07035756 0.05846648 -0.111678906 0.15671666
-0.13203332 -0.12681553 0.16648577 -0.10009018 0.03308451 0.123902544 -0.115077816 -0.08790197
-0.16104555 0.015907586 -0.011908382 -0.039650872 -0.13870376 0.032937914 -0.1182442 0.11060713
-0.0910087 -0.16567968 0.033523574 -0.06402199 0.01773125 -0.092906155 -0.045131728 0.08291347
0.106382325 0.05329442 -0.13120565 0.002704814 -0.1419994 0.108657554 -0.1019249 -0.13674048
0.17458986 -0.011577025 -0.10972325 0.16397943 0.0731933 0.007925332 0.06371418 -0.16433044
-0.12632789 -0.1418449 -0.11160178 0.073924884 0.01738444 -0.05224043 -0.14161606 -0.11688174
-0.10064071 -0.12437585 -0.046528265 -0.016684964 0.1495447 0.06817369 -0.014467418 -0.16692129
0.17524327 0.13047124 0.11048184 -0.065277755 -0.14385246 0.02611193 0.1111515 0.10867493
0.030372024 0.018545479 0.1215042 0.06031522 0.10201089 0.09420268 0.015442535 -0.13998201
0.0687951 0.15622796 0.09553425 0.07732917 -0.16890508 0.0036306083 -0.06880157 -0.02277723
-0.060925752 0.1692733 0.10435684 0.025022522 0.14428802 -0.04048401 -0.11672479 -0.041067988
-0.06891248 0.026827559 0.03089282 0.1701243 0.12928136 -0.075134575 0.037305877 -0.06928257
00000000: 31d2 1c3e b653 fdbd 744d 09bd 1caf 34be
00000010: eea6 9e3d 8040 6f3b 2cd3 e3bd 2822 eabc
00000020: b0dd 1dbc f740 153e ba28 893d 3267 f43d
00000030: f0e5 0f3c e585 28be de97 f23d 10ec 703d
00000040: 10c8 473c fee8 26be 4605 fa3d 2c85 dcbd
00000050: 880f f8bc 4fa8 21be 0ca4 49bd 10a1 e8bd
00000060: 921d b93d 98a9 363d 4a1d b53d d20c 1abe
00000070: 58c0 efbc 92cd a53d 30c1 edbc b8e7 a0bc
00000080: 1af1 e1bd 00e6 88bb dbee 27be 20d5 9abd
00000090: c0aa 9ebb a7a6 d7bd 7054 8fbc ce02 c93d
000000a0: 3835 d5bd 2073 1d3d 6964 163e c085 5cbd
000000b0: 00c0 ac37 31c3 253e e8d3 cfbc 1672 903d
000000c0: 4bf0 073e a537 b4bd 86b8 ad3d 234c c1bd
000000d0: 907e 533c 66ce 58bd 903e e33c 3f96 1c3e
000000e0: 2259 ad3d d79f 0ebe 2970 303e b9c4 b0bd
000000f0: 58d2 99bd 4176 303e 2bd8 223e 31c6 2b3e
00000100: e280 c03d 791c bfbd dd5b 333e 50d2 133c
00000110: 5290 d63d 324d 24be b444 5abd 1056 4cbc
00000120: b62a ac3d 6c18 31be 681c f9bc aac1 1abe
00000130: f23b df3d 0440 ddbd cc6f 14be c14f 003e
00000140: 6a49 1bbe 0de9 103e c6b7 7ebd 7064 a4bc
00000150: f0a9 ddbc 102f 29be b20f 90bd 4978 263e
00000160: 69ba 1dbe b504 183e 0d5c 0b3e b0a6 63bc
00000170: f060 80bc 703d dc3c 2488 0cbd 001e 09be
00000180: 2201 fb3d 095f 263e 7053 c83c 2306 0c3e
00000190: 5f1e 233e d84f 04bd f9c7 e0bd 11fb 20be
000001a0: 46be ce3d 6086 2abc b2ea 983d a0de ac3b
000001b0: ab8f 2fbe 327a c13d da5d 9f3d ecff 2bbd
000001c0: d4d6 953d 0069 323a 4e35 e2bd fe8c b23d
000001d0: f08f 70bd ac6c 0f3d a1fa c5bd aa59 a83d
000001e0: 38be c0bc 4d89 2bbe 2ea7 68bd 30e9 ccbc
000001f0: 40ee f33b 308f d5bd 88c7 57bd f82b 26be
00000200: ab09 01be 6673 10be fe5a 1abe 4ecb 8dbd
00000210: aef2 853d a10b 013e 0594 003e c05c 153d
00000220: 25b3 2b3e c513 b2bd 7c9e 6e3d e87c 503d
00000230: 48b3 5a3d 35f4 95bd 00fe 083b 4b06 063e
00000240: dcec 47bd 1080 753c 64d5 3d3d a1dd 163e
00000250: e4a9 a7bd 996b 183e 40c5 55bd 6ac6 a23d
00000260: 4a1c 6abd 0896 593d 7dde 0dbe 2cca 2abe
00000270: a017 903d 8c7a 6f3d e9b7 e4bd 557a 203e
00000280: be33 07be eedb 01be 3f7b 2a3e 15fc ccbd
00000290: a083 073d 9ec0 fd3d ebad ebbd f305 b4bd
000002a0: 20e9 24be a050 823c 601b 43bc f468 22bd
000002b0: 5c08 0ebe e8e9 063d 042a f2bd fe85 e23d
000002c0: c562 babd efa7 29be 0450 093d f61d 83bd
000002d0: 2041 913c 9545 bebd 0cdc 38bd 8ace a93d
000002e0: fade d93d 404b 5a3d c65a 06be 4043 313b
000002f0: 4a68 11be da87 de3d 01be d0bd b205 0cbe
00000300: afc7 323e 90ad 3dbc 95b6 e0bd 39ea 273e
00000310: 5ee6 953d 40d9 013c 947c 823d 3d46 28be
00000320: 195c 01be ca3f 11be 798f e4bd ee65 973d
00000330: d069 8e3c 10fa 55bd cd03 11be b25f efbd
00000340: b71c cebd c4b8 febd 6c94 3ebd e8ae 88bc
00000350: 3f22 193e a69e 8b3d c008 6dbc 6aed 2abe
00000360: f972 333e 419a 053e 4e44 e23d 58b0 85bd
00000370: 0f4e 13be b0e8 d53c 66a3 e33d f690 de3d
00000380: c0ce f83c b0ec 973c 32d7 f83d 180d 773d
00000390: 16eb d03d 56ed c03d b002 7d3c 7257 0fbe
000003a0: 72e4 8c3d 39fa 1f3e 76a7 c33d c25e 9e3d
000003b0: 74f5 2cbe 80ef 6d3b d6e7 8cbd 5097 babc
000003c0: 488d 79bd fb55 2d3e 0ab9 d53d 08fc cc3c
000003d0: 3dc0 133e 90d2 25bd 680d efbd e836 28bd
000003e0: fc21 8dbd 78c5 db3c f012 fd3c 1135 2e3e
000003f0: 5562 043e 28e0 99bd 0cce 183d 05e4 8dbd

rnn.bias_ih_l0 f4 [32]
0.91450363 0.62344295 -0.5235345 -0.875706 -0.98194426 0.19162941 -0.5171533 -1.5096384
-0.5732153 1.4879721 0.09109518 -0.29772043 0.35965958 -1.6529667 1.0228046 0.71493846
-0.1711239 -0.16131397 -0.3989008 -0.07988573 0.89487135 -0.18830012 -0.5362785 0.38854992
-0.4076372 0.30466056 0.5720506 -0.28196868 1.5815982 -0.775328 0.5309559 -0.58479935
00000000: e91c 6a3f f599 1f3f 5b06 06bf 452e 60bf
00000010: b360 7bbf 803a 443e 2964 04bf d53b c1bf
00000020: 3dbe 12bf df75 be3f 1c90 ba3d d06e 98be
00000030: 4d25 b83e 6a94 d3bf 43eb 823f 3506 373f
00000040: 1b3b 2fbe 7d2f 25be ba3c ccbe 219b a3bd
00000050: 4a16 653f bfd1 40be 8c49 09bf 04f0 c63e
00000060: d3b5 d0be 78fc 9b3e e871 123f 335e 90be
00000070: cf71 ca3f e57b 46bf baec 073f 69b5 15bf

rnn.bias_hh_l0 f4 [32]
0.75167257 0.61112565 -0.7830671 -0.6181645 -0.74413633 0.19221878 -0.49276975 -1.3368994
-0.8968498 1.4863032 0.27173492 -0.05890458 0.156893 -1.6530216 1.1671934 0.848533
0.10698584 -0.22183637 -0.20491892 -0.21344721 1.0313808 -0.14130269 -0.7169169 0.051561255
-0.47909614 0.5061648 0.69584155 -0.16208835 1.5036072 -0.7450926 0.44796947 -0.5321614
00000000: 9d6d 403f bb72 1c3f 1677 48bf 0740 1ebf
00000010: b87f 3ebf 00d5 443e 514c fcbe 851f abbf
00000020: f397 65bf 2f3f be3f d720 8b3e ee45 71bd
00000030: 8fa8 203e 3696 d3bf 9866 953f 7539 593f
00000040: 641b db3d 1329 63be 44d6 51be e891 5abe
00000050: 4904 843f a7b1 10be de87 37bf e531 533d
00000060: 174c f5be 0494 013f ac22 323f 7dfa 25be
00000070: 3376 c03f 63be 3ebf 415c e53e bb3b 08bf

fc.weight f4 [1, 32]
-0.7705435 1.2282752 -1.259713 -0.84401435 -0.6584442 -1.6240733 -0.49119726 -2.4748244
-0.72053266 -2.0214782 -1.041931 0.48672053 0.7892278 3.0989642 0.8891839 -0.70256954
-0.82477194 -0.804069 -0.604979 -0.49670136 0.736332 0.38302317 -0.4864364 1.0687082
-0.58361363 0.74059993 -0.54356277 -0.619732 -3.5713727 -0.6884252 0.7869344 -0.622545
00000000: 5742 45bf 1f38 9d3f 473e a1bf 5311 58bf
00000010: cd8f 28bf a2e1 cfbf 357e fbbe 8663 1ec0
00000020: d474 38bf e65f 01c0 ff5d 85bf 6f33 f93e
00000030: d50a 4a3f 6e55 4640 8ea1 633f 99db 33bf
00000040: 4124 53bf 77d7 4dbf e7df 1abf a44f febe
00000050: 4180 3c3f 9d1b c43e 310e f9be 6ecb 883f
00000060: b467 15bf f597 3d3f ee26 0bbf c2a6 1ebf
00000070: 5f91 64c0 a23c 30bf 8874 493f 1c5f 1fbf
